autoencoder_model.pth (torch, 848883 bytes, 12 tensors)

encoder.0.weight f4 [16, 3, 3, 3]
00000000: 3772 b63c ff5f 493e 6933 993d 4a51 ff3d
00000010: ec35 d53c 3a64 1f3d 1636 7d3d 2291 b33d
00000020: 6030 203c 744e 3abd 9e7d 553d 0d39 b23d
00000030: 0ce4 603d 10a1 5d3e 340e d0bd f55f 473e
00000040: dd97 ce3c 7d14 f83d 6bd1 a4bc 4db7 533e
00000050: 23fa 3b3e 5e90 e83d 78af 803e 69b1 083d
00000060: c60a 83bc fa0a 2e3e 9080 2b3e 189c f03d
00000070: c0ec 3c3e 10ec 413e 18b9 413d 59f9 fa3d
00000080: b1a6 803d 7560 0a3e 46fe 263e bd3b 253d
00000090: 8341 693d b325 443e 5b0a 303e 456b 683d
000000a0: 910f 78bd fbfc 073e 2c48 6c3d aabb e73d
000000b0: 9021 d0bd c75b d5bd ce82 febd 9e21 0ebe
000000c0: 168a 91bd 8b5c 2e3e 8043 c5bc 7d9b 41bd
000000d0: 7d99 2dbd b8b7 2bbe 82f9 413d 1752 23bd
000000e0: 5c64 aabd c24a 353e 3ae5 de3d d3e7 1dbe
000000f0: 491a 463d 5f33 073e bbf9 49be 3d84 c83c
00000100: 21c5 91bd 2fea 413e 174f 573b bf8b 023d
00000110: f762 7fbd 120f e7bc 411c 26be 8cdd a2bc
00000120: 2faf 4c3e 5650 9cba 9fc6 303c c535 eabd
00000130: 5aed dabd ba0e a43d bd27 8dbd 3c05 0f3e
00000140: 82d3 10be 1fb0 41bd 3fa3 6c3e 5bcd 483e
00000150: 4640 123d b700 183e d3f8 453e 4949 04be
00000160: e831 f73d 5c27 f93b 8f36 a8bc 6d83 573e
00000170: 1f2a 253d 8fb9 dc3d 00e9 76bd c626 3d3e
00000180: a224 1fbe f22f 0abd eb9c 093e b0a4 fbbd
00000190: 3dce fdbd b43f 513e 6a26 fdbd ae38 05be
000001a0: 6984 a9ba 9492 ac3d 7037 273b 3075 833c
000001b0: e2a9 a512 90c0 c792 f073 bf12 c7c7 aa12
000001c0: c9db 0312 e91b c112 7231 cb12 8c4f c412
000001d0: b6b5 c412 6cf2 4393 5d45 2a94 8538 0393
000001e0: d8be 6994 e002 9194 c889 ef92 d081 5892
000001f0: 408e 8d93 2847 b491 5a7e 2012 5411 8d12
00000200: a098 3c12 797f 8f12 bbae cd12 0638 9f12
00000210: 62c1 2612 f105 db11 d5ac 9511 6757 3cbe
00000220: 935a a83d d22c 8abd 2df8 a23d 2a03 30be
00000230: 9c85 1d3e 20d2 b9bc c337 7dbd 8fc6 253e
00000240: bdd3 773d e609 353d 072e 0c3e 41e3 a63d
00000250: 4bbe 99bd 5a06 a83d 980f b3bc 52cc 98bc
00000260: 39e8 d23d ad96 fbbc e100 19be b456 dc3c
00000270: 1d78 da3c b121 2e3e 2517 85bd 1c45 3fbe
00000280: 3ad7 cebd c380 b5bd 18ce 1ebe b3e4 1bbe
00000290: f77d cfbd 6c43 0bbe 3b11 0fbe af9a f3bd
000002a0: c71e edbd 3802 0dbe 5b46 bfbd 429c 8fbd
000002b0: c28d c9bd a530 8fbd 7dc2 b1bd 40df 77bd
000002c0: 9028 27bd 19e5 a9bd 2258 82bd adfa 8bbd
000002d0: c783 b7bc 66a5 55bc 5dc4 483c 48c9 9fbc
000002e0: 4f1c a5ba f22d b3bb 7684 55bc 7ad8 a0bc
000002f0: 33ef 823c b705 c2bd fed0 e0bd 2d05 b5bd
00000300: 9597 04be 2b25 f3bd 007e 02be 756c 0cbe
00000310: 87ae 1dbe 2f42 1abe 495e 06be 0173 05be
00000320: 9bd0 03be ce32 0dbe 5364 0dbe 69ff 0cbe
00000330: 8e51 1abe 65cd 1ebe 6400 22be 0ce7 f3bd
00000340: 8ae3 e4bd 05c7 e6bd 77d9 fdbd 0e71 f8bd
00000350: 83e4 fabd 655b 0dbe eb53 11be 116e 05be
00000360: 035f 5b3e a221 e6bc f87f ba3d 8e36 2fb9
00000370: 05af 143e 179e 1c3d 780a c73d c9ca e43d
00000380: 6359 cdbd c887 2fbd 53ff ad3d b38f 53be
00000390: 2c3f 16be 4058 c4bd 5951 3a3b 9e14 4d3d
000003a0: 34b8 98bd 2916 463d bfe7 553e bce5 c03c
000003b0: ce11 1d3e e7a5 a23d 3f96 27bb bdf6 653d
000003c0: ae62 b43c bee9 93bd 634e b0bd bc81 f73d
000003d0: bb70 b5ba 81f2 4b3e 335c 00bd cf63 e2bc
000003e0: 124c a2bb 0d7f 423e 7660 903b 590f 623e
000003f0: 3511 61be d638 f53c e280 dfbc 4a65 1cbe
0.022271259 0.19665526 0.07480509 0.124666765 0.026026689 0.038913943 0.06181916 0.08767916
0.0097771585 -0.045484975 0.05212175 0.08702288 0.054904982 0.21643472 -0.10158959 0.19470198
0.025218898 0.12113283 -0.02011939 0.20675392 0.18357138 0.11355661 0.25133872 0.033372317
-0.015996348 0.16996375 0.16748261 0.117485225 0.18449688 0.18937707 0.04729566 0.122545905
0.06281794 0.13513358 0.16307935 0.040340174 0.056947242 0.19155006 0.1719145 0.056742925
-0.06056172 0.13280098 0.057686016 0.11315091 -0.101626515 -0.10417896 -0.12427293 -0.13880011
-0.07106416 0.1702749 -0.024080038 -0.047267426 -0.042382706 -0.16769302 0.04735709 -0.03987321
-0.08319923 0.17704299 0.10883565 -0.15420465 0.04836491 0.1320319 -0.19724171 0.024477119
-0.071176775 0.1893699 0.0032853538 0.031871554 -0.06235024 -0.028205428 -0.16221716 -0.019881032
0.19988702 -0.0011925797 0.010789542 -0.11436037 -0.106898025 0.08010621 -0.06892345 0.1396684
-0.14143184 -0.047287103 0.23109148 0.19609587 0.035705827 0.14844023 0.193332 -0.12918581
0.12070066 0.007603569 -0.020533828 0.21046229 0.040323373 0.1077758 -0.0602808 0.18471822
-0.15541318 -0.03373713 0.13438766 -0.12287271 -0.123928525 0.20434457 -0.123608425 -0.13009903
-0.0012933138 0.08426395 0.002551522 0.01604709 1.0454843e-27 -1.2606136e-27 1.2082375e-27 1.0777757e-27
4.1607218e-28 1.2186893e-27 1.282329e-27 1.2388949e-27 1.2414134e-27 -2.4731983e-27 -8.596486e-27 -1.656239e-27
-1.1801131e-26 -1.4642392e-26 -1.5116986e-27 -6.831759e-28 -3.5733673e-27 -2.8442846e-28 5.064284e-28 8.902623e-28
5.9510465e-28 9.055993e-28 1.2980393e-27 1.0048122e-27 5.2618727e-28 3.455577e-28 2.361457e-28 -0.18392716
0.08220401 -0.0674683 0.07957492 -0.17188707 0.15382999 -0.022683203 -0.061820757 0.16189025
0.060504664 0.044198893 0.13689433 0.08148814 -0.07506999 0.082043365 -0.021858022 -0.018652115
0.10298199 -0.030711496 -0.14941742 0.026896812 0.026668603 0.1700504 -0.06498555 -0.18678707
-0.10099645 -0.0886245 -0.15508306 -0.1522396 -0.10131448 -0.13599938 -0.13971417 -0.11894738
-0.11578136 -0.13770378 -0.09339591 -0.07012226 -0.09841491 -0.069917 -0.08679674 -0.060515642
-0.040810168 -0.0829565 -0.06364466 -0.06834922 -0.022401704 -0.013039922 0.012253848 -0.019505158
-0.0012596938 -0.0054681236 -0.013032069 -0.019634474 0.0159832 -0.09473746 -0.10977362 -0.08838878
-0.12948449 -0.118723236 -0.12743378 -0.13713248 -0.15398608 -0.1506431 -0.13121904 -0.13032152
-0.12872545 -0.13788912 -0.13807802 -0.13769306 -0.15070173 -0.1550804 -0.15820462 -0.11909303
-0.11176212 -0.11268429 -0.12394994 -0.121309385 -0.122506164 -0.13804395 -0.14192168 -0.13030268
0.21422963 -0.02809221 0.09106439 -0.00016709624 0.1451989 0.038236704 0.09718794 0.11171491
-0.10026815 -0.0428541 0.08495965 -0.20660286 -0.14672536 -0.09587145 0.0028429835 0.05006849
-0.07457009 0.048360977 0.20889185 0.023547046 0.15338823 0.079417996 -0.0025571731 0.05614351
0.02201971 -0.07222317 -0.08608701 0.12085292 -0.00138428 0.19916727 -0.031337928 -0.027635483
-0.004952916 0.18993779 0.0044060303 0.22076167 -0.2197922 0.029934328 -0.027283136 -0.15273014

encoder.0.bias f4 [16]
00000000: 2a05 82bb b4d4 edbd 0c4c 4f3e 9323 57bd
00000010: 1d31 35ad 91c3 2d3e 042c a73e 7796 a53e
00000020: 48fc 893d b488 793e 23dc c1ac 12b6 f03e
00000030: f447 99af 6b90 efbd 60c0 423e 509d bf3c
-0.0039679008 -0.116128355 0.20243853 -0.05252416 -1.0299564e-11 0.16969134 0.3265077 0.32341358
0.06737572 0.24368554 -5.50983e-12 0.4701391 -2.7881664e-10 -0.116974674 0.19018698 0.023390442

encoder.2.weight f4 [32, 16, 3, 3]
00000000: adb2 2ebd 1f42 073d 656f fe3b 23ff 4cbd
00000010: 7232 59bd 7de7 9f3c 43e9 babd d6f8 a7bd
00000020: 0b19 1abd 73ed ac3b 93bc 733a 7651 0a3c
00000030: 40a7 7ebc 0ac9 c3bc de99 26bc e36a 28bd
00000040: 0187 11bd d616 08bd 67a8 003d 0541 153c
00000050: d089 843c 7310 163c fafd fe3c 0cf9 db3c
00000060: aac9 eb3c 3c73 ef3c 3291 4f3c 3019 b0bb
00000070: 122c d2b9 7a49 ea3c 2be1 dbbc f043 b3bc
00000080: fa62 093b ad07 36bd 6002 2abd 6d37 8dbc
00000090: b9e1 f005 0a6f 6304 1ed4 fe84 cb68 2405
000000a0: 503e da82 e546 0106 679c 5f05 c2af 5e84
000000b0: b8d3 0b86 f844 533c 60fc 233d da57 d83b
000000c0: 8fe2 ecbb 4138 62bb 7df5 f0ba 63b6 c43c
000000d0: 95e3 d03c 685d 2b3d b6fb 463d 8c9a 7c3d
000000e0: 9883 3b3d 1fba 9a3d 8dd9 bc3d 68f7 953d
000000f0: 10e9 ba3d 9930 e93d af8f b93d 147b 2e3d
00000100: 3747 6e3d 741f 2a3d c49d 923d db54 b03d
00000110: 0fdf 913d ac9f a53d cfaa c63d 9d0a a33d
00000120: 0ac0 1cbb 7c35 683b 0026 d1bb b4f5 e23b
00000130: f610 14bd b51c 143c 82c6 14bd 4b77 13bd
00000140: 008a 3b3a c043 a2bc 0079 ccba dfe8 813b
00000150: ac46 5ebc 8415 513c abcd 55bb 52d5 b63c
00000160: 65f4 713c 63cc 273d 8e93 7f81 2094 eb00
00000170: ec7a 5300 9c1c 1d80 20fd a380 047d a700
00000180: 80cf c300 38f2 1c80 50ea 1780 560b 423d
00000190: 3ebf 8e3d d850 433d 417d a13d a0cf d43d
000001a0: c468 a23d 38fd d63d 88e4 053e ca5e da3d
000001b0: 73b5 62ad 48fc 36ad 8992 86ad e744 92ad
000001c0: a89d 3cad 1ee6 8bad 42ce 5ead f00f 88ad
000001d0: 2327 92ad fea3 2f3c b0b3 ea3b ecf5 ac3c
000001e0: d5df 15bc 6f34 58bc 096a 2fba fbfa 89bc
000001f0: c46c 9abc ad57 14bc 7a03 df3c 019c 2cbd
00000200: f8cc ddba ea9e f43b 44a6 303c c367 69bc
00000210: 7936 63bc f72c 01bd 66e7 0fb9 d7c8 b8bc
00000220: 5669 87bb f95d 703c 2e79 9ebd 9ac1 8a3c
00000230: 8da5 2dbd a97d bdbc 10f2 20bd 9783 223c
00000240: dd76 463d 6485 c1bb 7b0f 073c 35d4 5fbd
00000250: 93dd 4b3d 9fd6 093d f9d6 9e3d 83c4 c33c
00000260: b1f3 8e3d 14f2 e73b c6fe da3c e8c0 583d
00000270: 935d ad3d be39 cf3c e5bf 2ebd e262 08bb
00000280: e893 353d b64a d2bc 6ec0 95bd bb86 b2bd
00000290: b690 34bd ebbd d5bc 2b17 91bb c054 c2bc
000002a0: a8de a7bd 2792 41bd 7593 97bd 9b9c 4e3b
000002b0: b6e9 793d f477 dfbc 829d 8c3b b4a6 6b3d
000002c0: 1819 56bd a57e 9b3d ae68 5bbd d8c9 42bc
000002d0: 449a 428e c36a 4e8e 470f 4a8e 1eb4 368e
000002e0: 594c 208e c456 3d8e 3385 318e 8d02 238e
000002f0: 6bc8 3b8e 89cf 6ebd f35f 61bd 5cf2 6e3b
00000300: 149c 333c 7d95 1cbd 31e6 2d3d 7658 72bd
00000310: f951 79bd 4537 c0bd 471c 0e3d 97d8 d43c
00000320: 7f27 a93c 4864 de3c a7ab 5b3c a365 d53b
00000330: 0dbe 043c 3ee4 1abb d190 42bc d347 ec3c
00000340: f907 903c e706 153c 6c92 5a3c 9e7f 93ba
00000350: ac4b 27bc 9b3a ac3b d50d 08bc f770 8fbc
00000360: 41c1 84bd 3977 9b3d 9e19 a33d 52ae 493a
00000370: cd84 4ebd da4f e0bc 9811 2c3d a76b 80bc
00000380: 237f b93c 4642 813c 5b8a 033d 09d9 783d
00000390: f2a0 b33c 2b90 693d e079 e53c 87a4 56bd
000003a0: efcc 8fbd ce44 15bd 9adc 2c01 8171 3d00
000003b0: 7cf6 1e01 8399 8380 e1ff 9400 c701 7300
000003c0: 08fe 7700 cfe6 7b00 b1fb 0c80 6763 2f3d
000003d0: ca74 323d 5ca9 323d 7c13 e93c 65d6 993c
000003e0: 0684 ad3c 2775 5c3c 8e16 173c 0d05 2f3c
000003f0: d88b d0ad a40b 22ae df40 1cae 7efb 47ad
-0.042650867 0.033022042 0.007764744 -0.050048005 -0.053026624 0.019519562 -0.091265224 -0.082017586
-0.03762154 0.0052773296 0.0009297814 0.008442273 -0.015542805 -0.023899574 -0.010168521 -0.04111756
-0.03552914 -0.033224903 0.0314106 0.00910974 0.016178995 0.009159195 0.031126965 0.026852153
0.028782684 0.029229753 0.012668895 -0.0053740963 -0.00040087156 0.02859949 -0.026840767 -0.021882981
0.0020963536 -0.044440914 -0.04150617 -0.017238343 2.2652409e-35 2.6734708e-36 -5.9909912e-36 7.7304904e-36
-3.2067987e-37 2.4314288e-35 1.0514136e-35 -2.6176679e-36 -2.629854e-35 0.012894861 0.040035605 0.0066022696
-0.0072291563 -0.0034518393 -0.0018383708 0.02401275 0.025499145 0.041837126 0.048579894 0.061670825
0.045779794 0.07555031 0.09221182 0.073225796 0.091264844 0.113862224 0.090606086 0.042597845
0.058173385 0.041533902 0.07158998 0.08609935 0.07122623 0.080870956 0.09700548 0.07961009
-0.0023918175 0.003543227 -0.006382704 0.0069262628 -0.036148988 0.009040047 -0.036322124 -0.03600244
0.00071540475 -0.019807696 -0.0015600026 0.003964528 -0.013566654 0.012761477 -0.0032623808 0.022318516
0.014767741 0.040966403 -4.6941968e-38 2.1634479e-38 7.666442e-39 -2.673492e-39 -1.505999e-38 1.5381375e-38
1.7982359e-38 -2.658286e-39 -2.196272e-39 0.047374092 0.0697007 0.04768452 0.078852184 0.10391164
0.07930139 0.104975164 0.13075459 0.10662611 -1.28869025e-11 -1.040152e-11 -1.5299111e-11 -1.6628877e-11
-1.07215695e-11 -1.5904663e-11 -1.2665037e-11 -1.5468488e-11 -1.6615659e-11 0.010720251 0.0071625337 0.021113358
-0.009147604 -0.013196095 -0.00066915207 -0.01684331 -0.018850692 -0.009054107 0.027223337 -0.042140964
-0.0016922047 0.007465233 0.010781828 -0.01424593 -0.013867968 -0.031537022 -0.00013723745 -0.022556705
-0.00413243 0.014670842 -0.07737957 0.01693802 -0.04239421 -0.023131208 -0.03929335 0.009919069
0.0484532 -0.005905794 0.008243437 -0.054645736 0.049771857 0.033651944 0.077558465 0.023897415
0.06980074 0.0070784185 0.026732814 0.052918345 0.084651135 0.025296088 -0.042663474 -0.0020810892
0.044330508 -0.02567039 -0.07312094 -0.08717104 -0.04408332 -0.026091537 -0.0044278107 -0.023722053
-0.08196765 -0.047258522 -0.07401172 0.003152645 0.0610139 -0.027278878 0.0042912373 0.057532027
-0.052270025 0.07592515 -0.053566627 -0.011888944 -2.3986622e-30 -2.5442864e-30 -2.4905778e-30 -2.2519955e-30
-1.9758283e-30 -2.3337825e-30 -2.1881068e-30 -2.009253e-30 -2.3146027e-30 -0.05830339 -0.055023145 0.0036460375
0.010962505 -0.0382285 0.042455856 -0.059166394 -0.06086919 -0.09385542 0.034694936 0.025982184
0.020648716 0.027147427 0.013407624 0.00651236 0.008101952 -0.0023634578 -0.011875347 0.028842842
0.017581927 0.009095884 0.013340574 -0.0011253243 -0.010210913 0.0052560098 -0.008304079 -0.01750992
-0.06482173 0.07591099 0.079638705 0.0007693517 -0.050419617 -0.027381826 0.042008966 -0.015676333
0.022643631 0.015778672 0.032114368 0.060753856 0.02192733 0.057022255 0.028012216 -0.052403
-0.0702151 -0.03644257 3.1749685e-38 5.642683e-39 2.919686e-38 -1.208552e-38 1.3683445e-38 1.056172e-38
1.1019553e-38 1.1378565e-38 -1.192316e-39 0.042819407 0.04356841 0.043618545 0.028451674 0.01877899
0.021181118 0.013455666 0.009221686 0.010682357 -2.3708965e-11 -3.6844874e-11 -3.552791e-11 -1.1367683e-11

encoder.2.bias f4 [32]
00000000: 17d5 803d ffd2 68bd 7c0e 2b3d fc8c e8bc
00000010: 122c c5bd 6bb6 ddab 5b3d 613d ec24 e03d
00000020: c7a7 e83d bf0b fc3d 8099 bdbd e6ca e63c
00000030: dd1b d33d 0417 183d cded ab3a c466 c63c
00000040: 32f4 c33d 4d03 f33d 0d23 f23c 37d5 543d
00000050: 7890 3cbd 9cac de3c 5365 30bd 3b49 c9bd
00000060: 1a8c d13d 34bc d2bc c8e9 b53c cdd4 213c
00000070: 9013 e43c f377 d03c f491 64bd 8a29 75a8
0.06290644 -0.056841847 0.04176186 -0.02838754 -0.09627546 -1.5753626e-12 0.054990154 0.10944542
0.11360126 0.12306928 -0.092577934 0.028172921 0.10308049 0.037131324 0.0013117135 0.024218924
0.09568061 0.11865864 0.02955773 0.05196115 -0.046036214 0.027181916 -0.04306538 -0.09828421
0.102318004 -0.025724508 0.022206202 0.009877396 0.02784136 0.025447821 -0.055803254 -1.3609239e-14

encoder.4.weight f4 [64, 32, 7, 7]
00000000: 050b 563c 5ee1 8b3b cf39 d03a 0006 d034
00000010: 28b4 903a 3b36 a63b 6677 753c 51dd c03b
00000020: 0a9f 01bb bbc0 0fbb 27d6 49bb 3252 16bb
00000030: fe57 98ba 1e34 e53b 8ea5 b13b 7bc1 90ba
00000040: 6c4a 823a 30d7 823a 672f 1a3b d8b7 1d3b
00000050: 69cc bb3b fd3b 5b3b 16c6 3fba 5f65 05bb
00000060: b8e5 923a 8c40 0b3b a8fd 663b e1e8 003b
00000070: bbfa ac3a 496f 0a3a 48de 05bb 5cf0 13ba
00000080: b184 57bb 405a a5bb 6429 87bb 9bca cb3b
00000090: 15c1 023b ed13 94ba aa96 0fbb c37e 90bb
000000a0: b69f 2dbc dd07 cfbb 722e 8f3c 1a20 963b
000000b0: ab1f 9f3b 52b6 323a c569 4fbb 5342 1abc
000000c0: 0e53 43b8 c8f8 73bc f099 9dbc 251b 4bbb
000000d0: 3f63 9c3a 84f6 04bc 5c88 86bc dd4f c1bc
000000e0: e0ba 153b 5fb0 03bc 04de 513b db44 be3b
000000f0: 9c03 60bc a7eb 68bc 11af aabc 2590 4b3c
00000100: 9966 6d3c ba46 a23c 8973 613c 558d 00bb
00000110: 6248 51bc 7ea6 bbbc acf2 353c b2ab 923c
00000120: 9053 af3c cfe1 343c 303a 6e3c 07c6 a2bb
00000130: c480 b7bb 79d2 9b3c fda0 6b3c 6a4b e63b
00000140: 4e75 4c3c 5e26 733c 01b2 1b3c f190 f83a
00000150: ca93 ae3c 3542 413c 9961 c73c fb3c a83c
00000160: 887b 9b3c bb30 763b b17c 2d3c cdfd 8d3c
00000170: 08dc 5a3c 9c6a c13c 6b27 a03c 410b a33c
00000180: 8256 603a bace ad3b 7553 153c 6ad1 e93b
00000190: 613c 1f3c b829 8f3a dc09 8b3c 15dc f3bb
000001a0: 6728 b5bc c2ac ae3b 0ada fbbb a3f9 df3b
000001b0: c6ec 683c 8f43 2abb 0cf7 91bc 146a a0bc
000001c0: 0175 723c 6a42 483c 073e a33c b4ab 103d
000001d0: 5a4d 263c d3fa 9c3c 4a4b a5bc 5d9b b73c
000001e0: 3253 f93b 196d c33c f03e 983c 4f2b 013d
000001f0: cc59 853c 2428 153b f0d1 fc3c f255 803c
00000200: 6828 b33c 95b0 943c 5d05 dc3c 55f0 9e3c
00000210: 99e5 743b 9178 433c ceb9 f93c 0c51 f53c
00000220: d751 5a3c 1cec d93c 3ff7 d13c 7a99 623c
00000230: 4701 f9bb 28b2 953c f587 ef3c 198e 913c
00000240: 6355 0e3d cb9b ac3c 3479 9d3c c320 55bc
00000250: 9379 033b 444c 593b 4833 5b39 ce0d 55bb
00000260: 896a 0dbb 02fe b6bc 17f8 2bbc 371c 543c
00000270: dec2 263b 2307 d13b 4a89 3bbb ffea 1fbc
00000280: e4fd 32bc 9adf 873c 2261 5a3c 2105 de3c
00000290: e2d4 9c3c 2ffa c63c 0418 e5bb 9bdd 6ebc
000002a0: f2a0 303c 7669 c53c d4f0 123d 49aa 033d
000002b0: d818 123c 5bc9 603c e8e5 eb3a eb36 da3c
000002c0: 21a8 ac3c 3234 7c3c 9c9b 383c 3042 5b3c
000002d0: 2988 4b3c ceed 9d3a 22dd 793c 2845 0e3d
000002e0: c27b bc3c e872 e13c c4b4 b13c 9221 c33c
000002f0: 5f00 a73b d931 d6ba 0f22 9e3c d6b1 c13c
00000300: 6ce7 043d 8afb c63c 3bd6 833c d13e 4e3c
00000310: 09f1 80bc 64fc e3bb c0d7 f83a be91 03bc
00000320: e3e4 4dbc 4586 efbc 401b 3cbd cff7 d2bb
00000330: 3b34 52bc 5b83 143b f393 23bb 3f1f 53bc
00000340: 69fa a3bc 78d1 efbc 1d0f 893b fd3f 403c
00000350: ed07 8b3c 26b8 a03c a233 c0bb 5c29 f1bb
00000360: fed0 7fbc 7ae1 913c 2f15 1c3c 1b9b b73c
00000370: 0ebb 9c3c 810f 7a3c 7e74 98bb b040 9fbb
00000380: 1d9f 9d3c 4d97 b03c 335b d63c 2c01 0e3b
00000390: 0110 663c 4e00 c23b 9014 053c ac5a c33c
000003a0: 150f ac3c 0d23 393c 8cb6 303c e4b9 8c3b
000003b0: 8578 193c 76b2 7f3c 6447 36bb 46ed 383c
000003c0: 66bb c43c beeb b93c b0b6 473c 3135 aebb
000003d0: a3ec 90bb 170d 3f9b 4a10 de9a b057 891a
000003e0: 73bb 0f9b b262 319b 2508 251b f608 759a
000003f0: 67ae 1d9b 0907 011b c4af 9a9a 1bfe 271b
0.013064151 0.004268809 0.0015886369 3.8747385e-07 0.0011040019 0.0050723827 0.01498208 0.005885758
-0.0019778633 -0.0021934945 -0.003079781 -0.0022937176 -0.0011622903 0.0069947382 0.005421347 -0.001104399
0.0009940392 0.0009982344 0.002352679 0.0024065878 0.0057311547 0.0033452504 -0.0007315589 -0.0020354611
0.0011207378 0.002124819 0.0035246406 0.0019670057 0.0013197282 0.0005280865 -0.002042668 -0.00056434213
-0.0032885487 -0.005046159 -0.004124807 0.006219221 0.0019951512 -0.0011297442 -0.002190987 -0.0044096424
-0.01059716 -0.006318076 0.017478202 0.0045814635 0.00485607 0.0006817329 -0.0031648737 -0.009415227
-4.6568974e-05 -0.014890857 -0.019238442 -0.0030991521 0.0011931433 -0.0081154145 -0.016422443 -0.023597652
0.0022846982 -0.008037656 0.00320232 0.005806548 -0.013672736 -0.01421634 -0.020835431 0.012424503
0.014489793 0.019809116 0.013760456 -0.001961549 -0.012773605 -0.022906538 0.011105221 0.017904136
0.02140215 0.011040165 0.01454024 -0.0049674544 -0.005600067 0.01902126 0.014381644 0.007028033
0.0124791395 0.01484069 0.009502889 0.0018964094 0.021310706 0.01179557 0.02433853 0.02053689
0.018979803 0.0037565667 0.010588811 0.017332936 0.013358124 0.023610406 0.019550046 0.019902827
0.00085578125 0.0053041847 0.009114136 0.00713556 0.009718985 0.0010922467 0.016972475 -0.0074420073
-0.022113992 0.005330653 -0.0076859044 0.006835179 0.014216607 -0.002598021 -0.017817996 -0.019581832
0.014798404 0.012222866 0.019927038 0.03532 0.010150278 0.019162571 -0.020177502 0.02241295
0.0076087946 0.023855733 0.018584698 0.031535443 0.01627817 0.0022759521 0.030861825 0.015665982
0.021869853 0.018150607 0.026858026 0.019401709 0.0037368296 0.011930601 0.030484106 0.029945873
0.013325176 0.026601844 0.025630591 0.013830537 -0.007599029 0.018273428 0.029239634 0.017767953
0.0347494 0.021070382 0.019222833 -0.013008299 0.0020061478 0.003315703 0.00020904571 -0.003250945
-0.0021578392 -0.022337917 -0.010496161 0.01294618 0.002544574 0.0063790246 -0.0028615766 -0.009760617
-0.01092479 0.016586114 0.013328822 0.027102055 0.01914448 0.024289219 -0.0069913883 -0.014579202
0.01078056 0.02409814 0.035874203 0.03214482 0.008917056 0.013719882 0.0017997595 0.026637515
0.021076264 0.015393304 0.011267569 0.01338248 0.0124226 0.0012049021 0.015250476 0.03473392
0.023008231 0.027520612 0.021692641 0.023819719 0.00509648 -0.001634176 0.01930335 0.02364437
0.032447264 0.024289865 0.016093364 0.012588219 -0.015739935 -0.0069575775 0.0018985197 -0.008030353
-0.012566778 -0.02923883 -0.045924425 -0.0064382325 -0.0128298355 0.0022661302 -0.002496001 -0.012885868
-0.020016866 -0.029274687 0.00418271 0.011734006 0.016971553 0.019619059 -0.00586553 -0.0073596667
-0.015613792 0.01780771 0.009526535 0.022412827 0.019132163 0.0152624855 -0.004652559 -0.0048600063
0.01924091 0.02155652 0.026166534 0.002166818 0.014041902 0.0059204465 0.008122578 0.023846947
0.021003285 0.011299861 0.01078571 0.004294621 0.009367113 0.015606513 -0.0027813548 0.011287039
0.02401514 0.022695418 0.012189552 -0.0053163995 -0.0044227405 -1.5803379e-22 -9.1843364e-23 5.680354e-23
-1.1889251e-22 -1.4672987e-22 1.3651112e-22 -5.067205e-23 -1.3043088e-22 1.0672903e-22 -6.397687e-23 1.3896022e-22

encoder.4.bias f4 [64]
00000000: 5240 0e3d 231f 2abd f4b5 5cbd 9f06 5d3d
00000010: 8b1f 0dbd 07d6 243c c2dc 813c 3359 26ba
00000020: 0aa2 51b9 40e5 b7bb 90db d3bc fbec fe3c
00000030: e795 a9bc 7c28 7b3c 0fc2 883d 8a00 3d3d
00000040: e892 10bd 014c 533c 8df4 3bbd 8566 11bd
00000050: d2ed ce3c 27bd 97bb 3708 c13c cb2c 8d3c
00000060: 9ef8 c63c 474c 45b9 4d36 0dbc 0ad1 2fbc
00000070: 6c65 97bc 308f c9bc 46ec bc3c 6184 863d
00000080: c008 a33c b779 67bd 5f6a 7d3d 1a3d b1bc
00000090: 4f56 af3c 006d 233b fd2b ba3c 3ce0 33bd
000000a0: 826e 7cbc fc9f 83bc 9843 9ebc e3d4 ccbc
000000b0: 5053 033d 5101 6dbd 282f 5c3c 4abf 403c
000000c0: 13cb ee3c 9165 58bc 0bfe 12bc 1145 533d
000000d0: f6fb 93bc f03b 1abd bbf9 87bb 72c3 e23b
000000e0: 29df babc c112 aebb 3f5d 523d 9790 b83c
000000f0: 2d71 393d e2c2 233c e8e6 aa3c 8b93 593a
0.03472931 -0.0415336 -0.05388446 0.053961392 -0.03445391 0.010060794 0.015852336 -0.0006345689
-0.00019992157 -0.0056120455 -0.025861531 0.03111886 -0.020701362 0.015329476 0.06677639 0.046143092
-0.03529635 0.012896539 -0.04588752 -0.03549816 0.025259886 -0.004630703 0.023563487 0.017233273
0.024288472 -0.000188158 -0.008618903 -0.010730991 -0.018480979 -0.02460441 0.023061883 0.06568218
0.019901633 -0.05651256 0.06186902 -0.02163558 0.02140346 0.0024936795 0.022726053 -0.04391502
-0.0154072065 -0.016067497 -0.01931934 -0.025003856 0.032061875 -0.057862584 0.013438977 0.011764357
0.029149568 -0.013207809 -0.008971701 0.05157954 -0.01806448 -0.037654817 -0.0041496432 0.0069202716
-0.02281149 -0.0053122942 0.051358458 0.022529883 0.04527395 0.009995194 0.020862058 0.00082998787

decoder.0.weight f4 [64, 32, 7, 7]
00000000: 30e3 0bbc 455f d33b 985a 303c faef 81bb
00000010: 6b80 13bc 2cb7 2dbb 1a7a 34bc 1f51 a7bc
00000020: 829a 0bbd c9ce 09bd a5b3 0dbd 4051 41bd
00000030: b8bb 86bd 0a25 4fbc fbb1 7939 24be 91bc
00000040: 6eb0 81bb 512e 5abc 22c9 adbc e9eb 42bd
00000050: a32e 83bb f951 1cbc 567b 87bc f0d2 3939
00000060: b8ab 4f39 f0e7 5bbb ddd1 95bc 4d31 d03b
00000070: 2fa9 4bbc c115 b6bc 60c9 5cbc bcf6 84bc
00000080: c08b 24bc 23d3 bebc 4646 87ba 6f90 42bb
00000090: f197 94bc 9be5 9abc ecb7 64b9 cd51 71bb
000000a0: 9f1d 82bc d37d b7bb 7674 033c 8a5c a93c
000000b0: fd4d d63c 937f c43c 9db3 493d 2585 d13c
000000c0: 4c3e 313d 26c0 373d bd97 2d3c 25d0 0abc
000000d0: 1f55 9dbb 757e 3539 af72 b63c 5719 243d
000000e0: 37f5 903b a41e b3bb ca3b b9bc 3849 25bc
000000f0: 6f04 fcbb d015 06bb 26ab db3c 1a22 c5bb
00000100: 3a49 c3bc 13a2 ecbc e085 14bc 3fe3 2dbc
00000110: 4a2b 55bc c530 20bc a0ad 00bd b892 4abd
00000120: fec5 37bd 8b52 15bd a5c7 14bd 06ab ccbc
00000130: c4b1 d8bc 28c7 5fbb 2a43 16bc 7f43 18bc
00000140: 4d22 c5bc d30b 8dbb c3c3 b0bc b503 0ebd
00000150: 98dc 9dbb 5977 8bbc 9913 6fbc 7a63 d0bb
00000160: 7cab 1cbc f0fc 8ebc 4801 5ebc f8ff 42bd
00000170: 0428 4fbd 3d8f 30bd 63ef 07bd 3121 02bd
00000180: 925f 2dbd 0870 93bd d5ee d5bd bd84 64bc
00000190: 507a 30ba 6c63 fd3b 8e2d b53b 4b78 923c
000001a0: 96a0 2f3e 2835 18bc a34a d83b 6355 b33b
000001b0: 179d 4d3a 2ddf abba 7d26 81ba 1ca9 b33c
000001c0: e616 01bc b722 6bb8 9f67 9db9 bfb8 4f3b
000001d0: e2f1 a9bb d5b3 0ebc 7817 f1ba fb22 1cbc
000001e0: 1ab8 aaba aac7 ed3b bae6 273b 8849 3abc
000001f0: 97de 18bc 89c3 4a3b 6a53 483b 444c c83b
00000200: 98bc 333b 736e dd39 4f25 2cbb 0910 98bb
00000210: 58ad 46bc 3523 cc3b d859 4e3b 4ed6 b5ba
00000220: 9a6b 873b da4d 603b 2676 8fbc c3e2 b5bc
00000230: b314 643d ce7d aebc 59c8 8fbc af72 94bc
00000240: 9b17 cebc 78f9 0dbd 31d3 d0bd c16f 8e3d
00000250: ee04 b8bc f4df b9bc bee9 cdbc 47b2 a6bc
00000260: 9670 48bc e957 0c3d c041 1c3d a672 3cbd
00000270: 619b 6abb 19b1 22bc 27b2 e6bc 4e5b 24bd
00000280: a6b9 4cbd 9b22 b33b 993e 1fbd 23bb 93bc
00000290: 9313 84bc e3b6 40bc 70ec cbbc c2a7 6abd
000002a0: aedd a23c 8f60 e3bb 3f14 843a 3aa1 26bb
000002b0: e266 eebb 45f3 49bb a4d5 adbc 751e 8a3c
000002c0: ca1c ff3b e60c 19bc 5a92 2bbb e604 a3bc
000002d0: 9228 9fbc f206 8cbc 20f1 083d 0f27 0dbc
000002e0: 046a 0b3c 307d f5ba 6f5c 9bbc cd62 dbbc
000002f0: 9132 e7bc 8bba 3e3d 8450 07bc 6ba5 9d3c
00000300: 9532 9e3c e54f 81bc 57ae b33b 0907 343d
00000310: b7a9 bd3d 97e1 943c 3940 d5b9 7c01 373b
00000320: ed61 ccbb 20ec 18bc 54fe 70bd f442 93ba
00000330: 6e19 43bd c4f2 f2bc 364e c7bc 1066 a0bc
00000340: dfa5 1fbd 7837 aebc ba7c efba 53e6 4dbc
00000350: 277f dcbb 6d21 d4bb 6933 243c a306 bebb
00000360: f2a0 ab3c dc81 3bbc 140b 59bc 358b 2fbc
00000370: 19ce 61bc 0cbd 64bb 4a1c 39bc c5d4 bb3c
00000380: 5e5a 0fbd 08f9 a5bc b606 b0bc abbc f6bb
00000390: d047 b5bb 1063 62bc b4b1 ae3b 3da8 29bd
000003a0: f441 b2bc 10dc 63bc 3e0a 73bc 1985 9ebc
000003b0: 75d2 d9bb 7907 1fbc 5cdf 803c 6e55 7a3b
000003c0: d891 1f3b 0ef1 4f3c bc7d 60bb a775 d9ba
000003d0: 887d 5a3c 3c4a 19bd eea1 4abc ef64 40ba
000003e0: ddb6 aa3a 06e2 703c 47d1 89bb fe38 c43d
000003f0: baad 17bc 6efe e7bb 1f74 10bc 0b6e 96bc
-0.008538052 0.006450566 0.010763787 -0.003965375 -0.009002785 -0.0026506884 -0.011015439 -0.020424424
-0.034082897 -0.03364447 -0.03459515 -0.047196627 -0.06578773 -0.012643108 0.00023812793 -0.017790861
-0.0039577996 -0.013316707 -0.021214072 -0.047588263 -0.0040033623 -0.009541028 -0.016538303 0.00017721555
0.00019805029 -0.0033554994 -0.018288547 0.0063535334 -0.012430473 -0.02222717 -0.013475746 -0.016230933
-0.010043085 -0.023294037 -0.0010320626 -0.002968814 -0.018138858 -0.018908313 -0.0002181229 -0.0036822439
-0.015883265 -0.005599716 0.008023372 0.020674009 0.026160235 0.023986613 0.04924356 0.025576184
0.0432723 0.04486098 0.010595259 -0.008472477 -0.004801407 0.00017308614 0.022271482 0.04006323
0.004423763 -0.005466299 -0.022611517 -0.0100882575 -0.007690958 -0.0020459779 0.026815008 -0.006016028
-0.023838628 -0.028885877 -0.009065121 -0.010613262 -0.013010809 -0.009777253 -0.03141558 -0.04945633
-0.044866554 -0.036455672 -0.03632321 -0.024983894 -0.026451953 -0.0034145806 -0.009171287 -0.009293436
-0.024064207 -0.004304388 -0.021577721 -0.034671504 -0.0048175566 -0.017024683 -0.014592075 -0.006359515
-0.009562369 -0.017454594 -0.01355011 -0.047607392 -0.05057527 -0.043105353 -0.03318728 -0.031769935
-0.04232747 -0.07199103 -0.10445944 -0.013947663 -0.0006732093 0.0077327993 0.005529112 0.017879626
0.17151102 -0.009290017 0.0066006943 0.0054728254 0.00078435376 -0.0013112776 -0.0009853389 0.021931224
-0.007878995 -5.6060697e-05 -0.00030022577 0.003169581 -0.0051863054 -0.0087098675 -0.0018393835 -0.009529824
-0.0013024837 0.007256468 0.0025619701 -0.01137007 -0.009330413 0.0030939302 0.0030567297 0.006112607
0.0027425643 0.00042234696 -0.0026267355 -0.0046405834 -0.012126289 0.006229783 0.0031486657 -0.0013873072
0.0041327 0.003422609 -0.017512392 -0.022202855 0.055683803 -0.021300223 -0.017551588 -0.018121092
-0.02515774 -0.03466174 -0.101965316 0.06954909 -0.022463288 -0.022689797 -0.025135871 -0.020348681
-0.012233874 0.034263525 0.03814864 -0.046007775 -0.003579818 -0.009929919 -0.028161122 -0.040126137
-0.049981736 0.005466772 -0.038878057 -0.01803357 -0.016122615 -0.011762354 -0.024893016 -0.057288893
0.019881096 -0.006939001 0.0010076835 -0.0025425688 -0.007275448 -0.0030815166 -0.021220036 0.016860226
0.0077854143 -0.009341454 -0.0026179762 -0.019899797 -0.019428525 -0.017093156 0.03343308 -0.008615269
0.008509163 -0.0018729325 -0.018964974 -0.02678051 -0.028222354 0.04656462 -0.0082589425 0.019243916
0.019311229 -0.015785167 0.0054834294 0.04395202 0.09260886 0.018173976 -0.00040674375 0.0027924469
-0.0062372596 -0.00933364 -0.058836296 -0.0011235164 -0.047631674 -0.029656775 -0.024329286 -0.019579917
-0.038976546 -0.021266684 -0.0018271424 -0.012567121 -0.006729025 -0.006473711 0.010022023 -0.005799131
0.020950768 -0.011444535 -0.01324727 -0.010714342 -0.013782048 -0.003490272 -0.011298249 0.022928605
-0.03499829 -0.020260349 -0.021487575 -0.007529815 -0.0055322424 -0.013817564 0.0053312425 -0.04142021
-0.021759965 -0.013907447 -0.014833985 -0.019350575 -0.006647403 -0.009706371 0.015731506 0.0038197893
0.0024348404 0.012691749 -0.003425463 -0.0016590849 0.013335593 -0.03742431 -0.012367709 -0.0007339259
0.0013024468 0.014702326 -0.004205856 0.09581183 -0.009257728 -0.007079891 -0.008816748 -0.01836302

decoder.0.bias f4 [32]
00000000: 90a1 ab3d 46c2 8c3d 9da5 283d 52e4 1d3e
00000010: 596b 763d 50f0 c23d e29b 9c3d 5f4c 233e
00000020: 5f4e b43d 3c52 8a3d 7b1b 853e 4b38 e83d
00000030: 4d6d d73d c616 f33c d825 bb3b 9551 e23d
00000040: 1530 983d 4a43 983d b363 5d3d 588a 043e
00000050: fb0e 3e3e 9bb2 203e fe7b 113e b10e d83d
00000060: f9f2 d13d 8b86 833d ca27 9995 d803 20bb
00000070: 463d 883d 8e54 353e e1bf 923d 133d 073d
0.08380425 0.06872992 0.041173566 0.15419129 0.06016097 0.09518492 0.0764692 0.15947102
0.088040106 0.06753966 0.25997528 0.11338862 0.10518894 0.029673945 0.0057112984 0.11050717
0.07431046 0.07434709 0.05405016 0.12943399 0.18560402 0.15693133 0.14207456 0.10549677
0.102514215 0.064221464 -6.1858984e-26 -0.0024416354 0.06652312 0.17708036 0.07165504 0.03301723

decoder.2.weight f4 [32, 16, 3, 3]
00000000: f939 bb3c 1568 67bc 0161 95bd 4b77 793d
00000010: b39d 19bd 456f 05be bffc f63c 0eeb 15bd
00000020: dc35 96bd a506 113d ff13 bfbc 1f1d 06bd
00000030: 0471 703c 97d6 bfbd 06e7 ebbd 2b22 68bc
00000040: 6805 9ebd 8623 99bd 9ea3 7bbc 3ace 223d
00000050: eec8 ba3d 84c5 3cbd c35b a43d 3be5 153e
00000060: ea3b 583c e6bd f33d d636 063e fc10 4bbc
00000070: aa39 86bd 39e3 54bd 16d5 1e3d d800 be3c
00000080: 812d 0dbd 1ea3 c83c e4d0 4ebd bcbc efbc
00000090: 0738 353d 35df c1bc 6709 f4bc 1e9d 9d3d
000000a0: d012 10bb 184d 8abd db5d bd3c c2d7 2ebd
000000b0: f530 25bd f147 a33c 95e2 f7bc 0980 88bc
000000c0: 11ea 5a3d 094d 83bc cbd4 0abd b09b bb3c
000000d0: 4fc4 1cbb 3ad1 313b c927 2c3b dfab 87bd
000000e0: 9922 b3bd 9d3c 4c3c fdee f6bd f019 06be
000000f0: 2397 92bc c1df f5bd c48c 09be e886 403b
00000100: 8d6c efbc 5311 01bd 4776 e43c 0bd4 ddbc
00000110: 7c6d debc d0b5 fb3b 165b a6bc d56e 50bd
00000120: c893 c23b 696e d93d 4c95 d23d 6db0 c13b
00000130: 59f5 483e de47 4c3e ac49 6d3d 27c6 443e
00000140: e87c 2b3e 74a9 01bc b6b6 2439 f3c6 82bc
00000150: f674 943c 817b 55ba 940f 8f3c 0790 31bc
00000160: 8a06 623a 4449 7fbc fa97 79bc 9c79 3abc
00000170: 4f66 2bbd 3702 b0bc a245 e0bb 1e8c 48bd
00000180: 36ee 5a3b efbf 47bc 500d 00bd 03e3 8b3c
00000190: ee63 a0bc 030b 77bd 1a33 06bd dedb a33c
000001a0: 4b63 dbbd 6336 763b 65a9 a5bc f2d6 6dbd
000001b0: 9031 9c3c a19e 643d 11e1 553d 7a9e 98bb
000001c0: 47b6 6c3d 0a34 ce3d aa11 f53c 09e8 b23d
000001d0: 5b54 e83d 1b83 d23c 97b9 7cbc 6d8b bebc
000001e0: ad08 153d 476e aabc 6e23 c4bd 0f56 84ba
000001f0: 6e63 08bc f807 82bd 3c6d 07bd 5c62 97bd
00000200: bd3a 4f3b 92fa 93bc 23f5 8abd c3b2 2cbd
00000210: 2060 ac3c 16d2 30bc d157 f53b 3c93 cf3c
00000220: 92f4 173e 5397 2f3e 6124 c33c 49f6 783e
00000230: 2169 903e 94e9 443d 2b55 553e 0323 543e
00000240: bbb3 153c 3428 fe3c b2d7 c53c c1f4 1d3d
00000250: 70cf cb3d 3080 e43d 7882 ae3c 0b72 a73d
00000260: e8ad 5c3d f473 8f3c b2e0 cd3c 2529 353d
00000270: 7e55 62ba 5707 a3bb 74cb c33c 87fa 09bd
00000280: 129c f8bc d230 16bb 2cfb 673c deeb cc3c
00000290: 5abf 91b9 1ab8 543d 7241 413d d38f d53c
000002a0: 84f4 313b b7d3 3bbc 20fd d1bc 59d8 143d
000002b0: dbc5 013d f24b 1b3d 6a38 4e3d 5c87 a53d
000002c0: 633d 883b 98ef 923c cba1 033d 4275 323d
000002d0: f427 493a 7649 163d 07ed 063d eab4 f13b
000002e0: ab4a 9f3d 9659 803d 2a34 e2ba 9019 483d
000002f0: b793 313d 1dd1 c73c b192 8b3d f916 563d
00000300: d2da fa3b 0145 013e a640 da3d 9335 563c
00000310: cb19 963d 06bc 553d 0125 d1bb 5c2d c43c
00000320: 6ba6 7c3c 0b26 6e3c b977 143e ae9b d93d
00000330: 8d85 973c 8c00 de3d 615f 963d c6e7 e53c
00000340: 966f 833d 2427 063d 51f3 1a3d 829f ff3d
00000350: 3809 5a3d cbcc 27bc 2f73 bf3c dd1e 0e3d
00000360: 19ad 05bb 8e7c 453c ee02 aebb 1889 7c3d
00000370: c3a8 173d 1864 863c 6da5 ce3a a009 b3bc
00000380: 743f acbc 95e3 24bb 5493 193d 0255 fbba
00000390: 7621 94bc 2198 5437 2c9a c9bb 2acd a3bc
000003a0: b4d8 cd3c 6a7e acbc d68d 05bc f116 dbba
000003b0: a0a8 b53b 6f70 28bb c7a9 6a3c 12ba 1c3d
000003c0: 5921 aa3c 16cb 73bc eb83 3b3d 459d c6bc
000003d0: ba48 3dbc 02fa ffba 855f 8c3c 8dd6 383d
000003e0: db22 b23d 8232 9abc 2c42 ad3c 1bab 2c3c
000003f0: 40e7 f1bb bc49 983b bbe8 bdbb 4e34 6c3c
0.022854792 -0.014123936 -0.07293893 0.060904782 -0.03750391 -0.13030727 0.030149816 -0.03660112
-0.073344916 0.035406727 -0.023324965 -0.032742616 0.0146753825 -0.09367102 -0.115186736 -0.0141683025
-0.07715875 -0.07477479 -0.015358834 0.039747454 0.091203555 -0.046086803 0.08025315 0.14638226
0.013197878 0.11901455 0.13106856 -0.012394186 -0.06553967 -0.05197451 0.038777433 0.023193762
-0.034467224 0.024491843 -0.050492182 -0.0292648 0.044242885 -0.023666004 -0.02978964 0.07695983
-0.002198387 -0.06752986 0.023116043 -0.04268623 -0.040329892 0.019931765 -0.03025941 -0.016662614
0.05344588 -0.016027944 -0.03389434 0.022901386 -0.002392072 0.0027132765 0.002626883 -0.06624579
-0.08746833 0.012465623 -0.12057302 -0.13095832 -0.017894333 -0.12005568 -0.13432604 0.0029377285
-0.029226566 -0.031510662 0.02788843 -0.027078649 -0.027151816 0.007681586 -0.020307105 -0.050886948
0.005938027 0.10616762 0.10282382 0.005910924 0.19624843 0.1994929 0.057931587 0.19216214
0.16746867 -0.007913936 0.00015708324 -0.015964007 0.018122178 -0.00081437087 0.017463483 -0.010837561
0.000862219 -0.015581433 -0.015233988 -0.011381533 -0.041845616 -0.021485431 -0.0068442384 -0.04896175
0.0033406145 -0.012191757 -0.031262696 0.017076021 -0.0195789 -0.060313236 -0.032763578 0.020002302
-0.10712298 0.0037569038 -0.020222375 -0.058066316 0.019066602 0.055815343 0.052216593 -0.0046575638
0.05779102 0.100685194 0.02991565 0.087356634 0.113442145 0.025697282 -0.015425107 -0.023259843
0.036385227 -0.020804537 -0.0957707 -0.0010096448 -0.008324487 -0.06349176 -0.03306316 -0.073918074
0.0031620704 -0.018063817 -0.06785037 -0.042162668 0.02104193 -0.010792276 0.007487275 0.025338762
0.1483939 0.1714757 0.023821058 0.243127 0.28205207 0.04807432 0.2083327 0.20716481
0.009137089 0.03102503 0.024150703 0.038563494 0.09951675 0.11157262 0.021302447 0.08176049
0.053876787 0.017511345 0.025131557 0.04422869 -0.0008633955 -0.00497524 0.023900725 -0.033686187
-0.030347858 -0.0022917283 0.014159005 0.025014814 -0.00027799123 0.051933385 0.047181554 0.026069557
0.00271538 -0.011464051 -0.025633395 0.036339138 0.03168283 0.037914224 0.05034677 0.080824584
0.0041577085 0.017936513 0.03213672 0.043568857 0.0007673495 0.03669115 0.03294089 0.007376303
0.07777914 0.06267087 -0.0017257978 0.048852503 0.043353762 0.024391705 0.068150885 0.052268002
0.00765548 0.12623979 0.10656862 0.0130742965 0.07329138 0.052181266 -0.006382585 0.02394741
0.0154205365 0.014535437 0.14498796 0.10625397 0.0184963 0.10839948 0.07342411 0.02806462
0.06417768 0.03275217 0.0378297 0.124815956 0.053231448 -0.010241698 0.023370354 0.034697402
-0.0020397364 0.012053622 -0.005310408 0.06165418 0.037026178 0.01640515 0.0015765853 -0.021855175
-0.02102635 -0.0025160064 0.03749402 -0.0019175115 -0.018082362 1.2671605e-05 -0.006152412 -0.01999529
0.025127746 -0.021056373 -0.008151492 -0.0016715211 0.0055437833 -0.0025701781 0.014322705 0.038263388
0.020767855 -0.014879962 0.045780104 -0.024244914 -0.011552984 -0.0019529464 0.017135391 0.045126487
0.086980544 -0.018822912 0.021149717 0.010538842 -0.0073823035 0.0046474617 -0.005795566 0.014416767

decoder.2.bias f4 [16]
00000000: ab7a 8d3d ae33 153e 168e ee3d 12c9 183d
00000010: 155d 303d 9a57 57bb 4717 bc3d 77f0 c13c
00000020: 5fb2 a73d 0118 943b 40ee 3fbc 1a22 c7bb
00000030: f095 0e3d c389 b83d 45c3 b63d 7714 36bd
0.06908163 0.14570495 0.116481945 0.03730113 0.04305752 -0.003285861 0.09184127 0.023674233
0.081883185 0.004519463 -0.011714518 -0.0060770633 0.03481096 0.09010651 0.089239635 -0.04445311

decoder.4.weight f4 [16, 3, 3, 3]
00000000: 2b26 963c 8045 b13d ab10 02be 9b07 45be
00000010: 7409 63be 9bba ccbd 88e3 a0bb e9ab b93d
00000020: 9fc2 8fbd e633 47bc 47d6 29bd b56c 5bbe
00000030: c63f 28be 2acb 67be 918d 2cbe bfef acbd
00000040: 0211 0bbd 01c5 4fbe 2a31 133d c002 8c3d
00000050: 2187 33be 0dbb f9bc 3957 34be abf7 5bbd
00000060: 3ad8 0dbe d498 393d 3c1a 85be 58aa 12bb
00000070: 7bea 20be e3cf 5abe 16bc a4bd 78a8 9cbe
00000080: f3ff 5bbe b163 f2bd f776 6abe f241 35be
00000090: 6d2a aebc 6ead b33d 8d64 1d3d 5359 623d
000000a0: d1a0 363d 441d 1a3b 4486 93bd c394 efbd
000000b0: a57a edbd 9ec5 073e e3cc 093e 310d 58bd
000000c0: 94c1 7d3d d307 d53d 459f 353c ffd0 80bd
000000d0: 7965 003d b693 6f3d 97f5 9d3b cff6 f23d
000000e0: 5a0e a93d c60d 60bd 9020 393d dc04 e93d
000000f0: 6008 683d 8edc cbbd abb6 87bd 53ea 44bd
00000100: 567d c7bd b272 2dbd ea9c 5c3d 9a57 7b3b
00000110: 7546 313d 61a0 503e fde6 1f3e ef29 403e
00000120: 8c69 1f3d bac8 1c3e 5680 533d 1600 a53e
00000130: 35cb be3e 7e95 9f3e 37a1 063e a6a9 c93d
00000140: d377 7dbd 5587 f5bd 0049 41be 25af 08be
00000150: 2729 5fbd 65c7 e2bd 1ca2 313d f6c1 b9bd
00000160: 2ade 01be 69a6 5dbe 401a 3dbc 47f3 49be
00000170: 6f5e 42be 1500 153b fb7a 85be b0e6 c4bd
00000180: 8779 99bd f291 91be a32a 13be a641 afbd
00000190: 0da3 f3bd 06b0 52bd 90fc 8a3d 0bf3 c33b
000001a0: 01a0 30bd 8050 1a3d d812 4ebe 894c 57be
000001b0: 4bc9 c23d 8843 963d c0b4 783d 3119 923d
000001c0: 051a ffbc fe9f 23be da48 53bc 33ac 1ebe
000001d0: a8a2 c5bc 53b0 1ebd 3b8a 91bc f9b4 003d
000001e0: 7453 03bd ee9a 7cbd 196a 21be b740 16bd
000001f0: f10f 22bc 01b4 b8bd a1bf 92bd 8058 f8bd
00000200: 1b54 d7bd 055c 06be d54a 8dbe dbfe 5fbe
00000210: 1366 debd a37e 53be 0777 b6bd f7c6 d3bc
00000220: d38a 8f3c 5d5d f23d 5d63 3f3d bac6 5f3d
00000230: 3480 d93d beaa ec3d 8ddd 8cbd 8f3e 24be
00000240: 2cbd 64bc 4412 7abe b859 77bd 5290 15be
00000250: 7764 bfbe 7ed6 24be 4631 60bd 5ca6 5bbe
00000260: c1d0 28be 66ad 503d 3a0f 05be 7086 053e
00000270: a7bc 06be 3b4f 8abe 4f39 eebd 9365 3a3d
00000280: 804e 0fbe 2218 e2bd f3fa ebbd 735c 20be
00000290: 95f0 95bd f6bb e0bd 829f c2be d630 a9be
000002a0: 7609 49be 79b3 c0be 751b b6bd 3a72 b93c
000002b0: e98b ad3c 8ce6 af3d e1d0 533c 4076 2abe
000002c0: 79aa 32be fbd3 40bc 2970 5abe cae4 16bd
000002d0: 0444 853d 6d62 91bc 7b3b 81bd eae5 adba
000002e0: cad6 b8bd b1a5 17be 0ed6 f6bb 579c 77be
000002f0: 8425 d2bd 65b9 883d e7f4 ce3c 0e68 31bd
00000300: 19f9 b5bd 3a57 1bbe 8744 f0bd acae 813d
00000310: f959 2ebe b4de 95bd a4b3 f0bd 70a4 e7bd
00000320: dbb3 33be 4163 1cbe 48b4 89be f7d2 2cbe
00000330: dc44 96bd c5d9 02be d326 e1bd cd56 9abd
00000340: 02b9 8fbd 3252 92bd 6b1f abbd feff 5abe
00000350: 07b6 1abd 0fd7 3fbe ce54 16be d26d 403c
00000360: d3d2 9a3c f1d1 00bc b4d6 63bd aac0 b43d
00000370: 6576 653e 23e8 1c3d 56fd 2c3c 58bc 0b3e
00000380: af04 1e3e 5242 38bd 8a94 4b3e 207a 3f3e
00000390: d7ba 113d 5644 c53e 6822 313e 8a00 97bd
000003a0: 087a c93d b73c 92bc 94e6 913d 5a6b 873d
000003b0: c76f 683e 2f06 87bc 17ca 973e 36c5 5a3e
000003c0: b225 16bd 9ea5 883e 692a 753e 1fad d4bc
000003d0: 14cc ecbd abf7 8cbd acce e6bc 460c 793d
000003e0: 4bba 293d bd67 e9bc d8d6 08be 11e8 06be
000003f0: ac10 453d a382 2fbd 8727 cdbc 2ab9 913d
0.018328747 0.08655834 -0.12701671 -0.19241183 -0.22171575 -0.0999653 -0.0049099363 0.090659924
-0.07019543 -0.01215837 -0.041464116 -0.21428187 -0.16430578 -0.22636095 -0.16850878 -0.084441654
-0.033951767 -0.20289995 0.03593556 0.06836462 -0.17532016 -0.0304847 -0.17611398 -0.05370299
-0.13852015 0.045311764 -0.25996578 -0.0022379365 -0.15714447 -0.21368365 -0.08043687 -0.3059728
-0.21484356 -0.11835421 -0.22896944 -0.17700937 -0.021260465 0.087733135 0.03842597 0.055260967
0.04458696 0.0023515979 -0.072033435 -0.11698296 -0.11595658 0.13258979 0.13457064 -0.052746955
0.06195219 0.10401883 0.011085336 -0.06289863 0.031346772 0.058490478 0.0048205364 0.11863481
0.082546905 -0.054700635 0.04519707 0.1137788 0.056648612 -0.09954177 -0.06626638 -0.04807503
-0.09740703 -0.04234571 0.053860582 0.0038351775 0.043280084 0.2037368 0.15615459 0.18765996
0.038919017 0.15310946 0.051636063 0.32226628 0.3726441 0.3116874 0.13147436 0.09846811
-0.06188185 -0.11988703 -0.18875504 -0.13348062 -0.054482605 -0.11073188 0.04336749 -0.09070198
-0.12682405 -0.21645512 -0.011541903 -0.19721709 -0.18981336 0.0022735645 -0.2607039 -0.09614313
-0.074938826 -0.2843166 -0.14371733 -0.08557443 -0.11896334 -0.0514374 0.06786454 0.0059799007
-0.04312134 0.037674427 -0.20124376 -0.2102529 0.0951105 0.07337099 0.06071925 0.07133711
-0.031140337 -0.15979001 -0.012895787 -0.15495376 -0.024125412 -0.038742375 -0.017766109 0.03142259
-0.03206201 -0.06167119 -0.1576313 -0.03668281 -0.009891496 -0.09018708 -0.071654566 -0.12126255
-0.10514089 -0.1312104 -0.27596155 -0.21874563 -0.10859313 -0.20653777 -0.089094214 -0.02585171
0.017522251 0.11834214 0.04672562 0.05463288 0.10620156 0.11556004 -0.06878195 -0.16039489
-0.013961118 -0.2442103 -0.060388297 -0.14605835 -0.37381336 -0.16097447 -0.05473449 -0.2145018
-0.16485883 0.050946616 -0.1299409 0.13039565 -0.13157903 -0.27013573 -0.116320245 0.045507025
-0.13994789 -0.11039759 -0.11522474 -0.15660267 -0.07321278 -0.10973351 -0.3801232 -0.3304507
-0.19632515 -0.37636927 -0.08891956 0.022637475 0.021184878 0.08588895 0.012928219 -0.16646671
-0.17447843 -0.01176929 -0.21331848 -0.036839284 0.065071136 -0.017747128 -0.06310173 -0.0013267372
-0.09025343 -0.148093 -0.0075328415 -0.24180733 -0.10261062 0.06675986 0.025263263 -0.043312125
-0.08885402 -0.15169993 -0.117318206 0.06332144 -0.1702651 -0.07317868 -0.11753014 -0.11310661
-0.17549078 -0.15272237 -0.26895356 -0.16877352 -0.07337353 -0.12778385 -0.10993733 -0.07536087
-0.07017709 -0.07144584 -0.08355602 -0.21386716 -0.03777125 -0.18734382 -0.14680788 0.011744933
0.018899357 -0.007862554 -0.05562468 0.0882581 0.22408445 0.03830732 0.010558447 0.13646066
0.15431474 -0.044985123 0.19880882 0.1869893 0.035578575 0.385287 0.17298281 -0.0737315
0.09837729 -0.017851217 0.071240574 0.066122726 0.2269889 -0.01648244 0.2964637 0.21364293
-0.036657043 0.26688856 0.2394196 -0.025961457 -0.11562362 -0.068831764 -0.02817472 0.06080272
0.04143743 -0.02849185 -0.13363206 -0.13174464 0.048111603 -0.042849194 -0.025043262 0.07115395

decoder.4.bias f4 [3]
00000000: f768 0fbd 441e 123e c802 06be
-0.03501221 0.14269358 -0.13086998
